----------------------------------------------------------------
        Layer (type)               Output Shape         Param #
================================================================
            Conv2d-1          [-1, 192, 32, 32]           5,184
       BatchNorm2d-2          [-1, 192, 32, 32]             384
       BasicConv2d-3          [-1, 192, 32, 32]               0
            Conv2d-4           [-1, 64, 32, 32]          12,288
       BatchNorm2d-5           [-1, 64, 32, 32]             128
       BasicConv2d-6           [-1, 64, 32, 32]               0
            Conv2d-7           [-1, 48, 32, 32]           9,216
       BatchNorm2d-8           [-1, 48, 32, 32]              96
       BasicConv2d-9           [-1, 48, 32, 32]               0
           Conv2d-10           [-1, 64, 32, 32]          76,800
      BatchNorm2d-11           [-1, 64, 32, 32]             128
      BasicConv2d-12           [-1, 64, 32, 32]               0
           Conv2d-13           [-1, 64, 32, 32]          12,288
      BatchNorm2d-14           [-1, 64, 32, 32]             128
      BasicConv2d-15           [-1, 64, 32, 32]               0
           Conv2d-16           [-1, 96, 32, 32]          55,296
      BatchNorm2d-17           [-1, 96, 32, 32]             192
      BasicConv2d-18           [-1, 96, 32, 32]               0
           Conv2d-19           [-1, 96, 32, 32]          82,944
      BatchNorm2d-20           [-1, 96, 32, 32]             192
      BasicConv2d-21           [-1, 96, 32, 32]               0
           Conv2d-22           [-1, 32, 32, 32]           6,144
      BatchNorm2d-23           [-1, 32, 32, 32]              64
      BasicConv2d-24           [-1, 32, 32, 32]               0
       InceptionA-25          [-1, 256, 32, 32]               0
           Conv2d-26           [-1, 64, 32, 32]          16,384
      BatchNorm2d-27           [-1, 64, 32, 32]             128
      BasicConv2d-28           [-1, 64, 32, 32]               0
           Conv2d-29           [-1, 48, 32, 32]          12,288
      BatchNorm2d-30           [-1, 48, 32, 32]              96
      BasicConv2d-31           [-1, 48, 32, 32]               0
           Conv2d-32           [-1, 64, 32, 32]          76,800
      BatchNorm2d-33           [-1, 64, 32, 32]             128
      BasicConv2d-34           [-1, 64, 32, 32]               0
           Conv2d-35           [-1, 64, 32, 32]          16,384
      BatchNorm2d-36           [-1, 64, 32, 32]             128
      BasicConv2d-37           [-1, 64, 32, 32]               0
           Conv2d-38           [-1, 96, 32, 32]          55,296
      BatchNorm2d-39           [-1, 96, 32, 32]             192
      BasicConv2d-40           [-1, 96, 32, 32]               0
           Conv2d-41           [-1, 96, 32, 32]          82,944
      BatchNorm2d-42           [-1, 96, 32, 32]             192
      BasicConv2d-43           [-1, 96, 32, 32]               0
           Conv2d-44           [-1, 64, 32, 32]          16,384
      BatchNorm2d-45           [-1, 64, 32, 32]             128
      BasicConv2d-46           [-1, 64, 32, 32]               0
       InceptionA-47          [-1, 288, 32, 32]               0
           Conv2d-48           [-1, 64, 32, 32]          18,432
      BatchNorm2d-49           [-1, 64, 32, 32]             128
      BasicConv2d-50           [-1, 64, 32, 32]               0
           Conv2d-51           [-1, 48, 32, 32]          13,824
      BatchNorm2d-52           [-1, 48, 32, 32]              96
      BasicConv2d-53           [-1, 48, 32, 32]               0
           Conv2d-54           [-1, 64, 32, 32]          76,800
      BatchNorm2d-55           [-1, 64, 32, 32]             128
      BasicConv2d-56           [-1, 64, 32, 32]               0
           Conv2d-57           [-1, 64, 32, 32]          18,432
      BatchNorm2d-58           [-1, 64, 32, 32]             128
      BasicConv2d-59           [-1, 64, 32, 32]               0
           Conv2d-60           [-1, 96, 32, 32]          55,296
      BatchNorm2d-61           [-1, 96, 32, 32]             192
      BasicConv2d-62           [-1, 96, 32, 32]               0
           Conv2d-63           [-1, 96, 32, 32]          82,944
      BatchNorm2d-64           [-1, 96, 32, 32]             192
      BasicConv2d-65           [-1, 96, 32, 32]               0
           Conv2d-66           [-1, 64, 32, 32]          18,432
      BatchNorm2d-67           [-1, 64, 32, 32]             128
      BasicConv2d-68           [-1, 64, 32, 32]               0
       InceptionA-69          [-1, 288, 32, 32]               0
           Conv2d-70          [-1, 384, 15, 15]         995,328
      BatchNorm2d-71          [-1, 384, 15, 15]             768
      BasicConv2d-72          [-1, 384, 15, 15]               0
           Conv2d-73           [-1, 64, 32, 32]          18,432
      BatchNorm2d-74           [-1, 64, 32, 32]             128
      BasicConv2d-75           [-1, 64, 32, 32]               0
           Conv2d-76           [-1, 96, 32, 32]          55,296
      BatchNorm2d-77           [-1, 96, 32, 32]             192
      BasicConv2d-78           [-1, 96, 32, 32]               0
           Conv2d-79           [-1, 96, 15, 15]          82,944
      BatchNorm2d-80           [-1, 96, 15, 15]             192
      BasicConv2d-81           [-1, 96, 15, 15]               0
       InceptionB-82          [-1, 768, 15, 15]               0
           Conv2d-83          [-1, 192, 15, 15]         147,456
      BatchNorm2d-84          [-1, 192, 15, 15]             384
      BasicConv2d-85          [-1, 192, 15, 15]               0
           Conv2d-86          [-1, 128, 15, 15]          98,304
      BatchNorm2d-87          [-1, 128, 15, 15]             256
      BasicConv2d-88          [-1, 128, 15, 15]               0
           Conv2d-89          [-1, 128, 15, 15]         114,688
      BatchNorm2d-90          [-1, 128, 15, 15]             256
      BasicConv2d-91          [-1, 128, 15, 15]               0
           Conv2d-92          [-1, 192, 15, 15]         172,032
      BatchNorm2d-93          [-1, 192, 15, 15]             384
      BasicConv2d-94          [-1, 192, 15, 15]               0
           Conv2d-95          [-1, 128, 15, 15]          98,304
      BatchNorm2d-96          [-1, 128, 15, 15]             256
      BasicConv2d-97          [-1, 128, 15, 15]               0
           Conv2d-98          [-1, 128, 15, 15]         114,688
      BatchNorm2d-99          [-1, 128, 15, 15]             256
     BasicConv2d-100          [-1, 128, 15, 15]               0
          Conv2d-101          [-1, 128, 15, 15]         114,688
     BatchNorm2d-102          [-1, 128, 15, 15]             256
     BasicConv2d-103          [-1, 128, 15, 15]               0
          Conv2d-104          [-1, 128, 15, 15]         114,688
     BatchNorm2d-105          [-1, 128, 15, 15]             256
     BasicConv2d-106          [-1, 128, 15, 15]               0
          Conv2d-107          [-1, 192, 15, 15]         172,032
     BatchNorm2d-108          [-1, 192, 15, 15]             384
     BasicConv2d-109          [-1, 192, 15, 15]               0
          Conv2d-110          [-1, 192, 15, 15]         147,456
     BatchNorm2d-111          [-1, 192, 15, 15]             384
     BasicConv2d-112          [-1, 192, 15, 15]               0
      InceptionC-113          [-1, 768, 15, 15]               0
          Conv2d-114          [-1, 192, 15, 15]         147,456
     BatchNorm2d-115          [-1, 192, 15, 15]             384
     BasicConv2d-116          [-1, 192, 15, 15]               0
          Conv2d-117          [-1, 160, 15, 15]         122,880
     BatchNorm2d-118          [-1, 160, 15, 15]             320
     BasicConv2d-119          [-1, 160, 15, 15]               0
          Conv2d-120          [-1, 160, 15, 15]         179,200
     BatchNorm2d-121          [-1, 160, 15, 15]             320
     BasicConv2d-122          [-1, 160, 15, 15]               0
          Conv2d-123          [-1, 192, 15, 15]         215,040
     BatchNorm2d-124          [-1, 192, 15, 15]             384
     BasicConv2d-125          [-1, 192, 15, 15]               0
          Conv2d-126          [-1, 160, 15, 15]         122,880
     BatchNorm2d-127          [-1, 160, 15, 15]             320
     BasicConv2d-128          [-1, 160, 15, 15]               0
          Conv2d-129          [-1, 160, 15, 15]         179,200
     BatchNorm2d-130          [-1, 160, 15, 15]             320
     BasicConv2d-131          [-1, 160, 15, 15]               0
          Conv2d-132          [-1, 160, 15, 15]         179,200
     BatchNorm2d-133          [-1, 160, 15, 15]             320
     BasicConv2d-134          [-1, 160, 15, 15]               0
          Conv2d-135          [-1, 160, 15, 15]         179,200
     BatchNorm2d-136          [-1, 160, 15, 15]             320
     BasicConv2d-137          [-1, 160, 15, 15]               0
          Conv2d-138          [-1, 192, 15, 15]         215,040
     BatchNorm2d-139          [-1, 192, 15, 15]             384
     BasicConv2d-140          [-1, 192, 15, 15]               0
          Conv2d-141          [-1, 192, 15, 15]         147,456
     BatchNorm2d-142          [-1, 192, 15, 15]             384
     BasicConv2d-143          [-1, 192, 15, 15]               0
      InceptionC-144          [-1, 768, 15, 15]               0
          Conv2d-145          [-1, 192, 15, 15]         147,456
     BatchNorm2d-146          [-1, 192, 15, 15]             384
     BasicConv2d-147          [-1, 192, 15, 15]               0
          Conv2d-148          [-1, 160, 15, 15]         122,880
     BatchNorm2d-149          [-1, 160, 15, 15]             320
     BasicConv2d-150          [-1, 160, 15, 15]               0
          Conv2d-151          [-1, 160, 15, 15]         179,200
     BatchNorm2d-152          [-1, 160, 15, 15]             320
     BasicConv2d-153          [-1, 160, 15, 15]               0
          Conv2d-154          [-1, 192, 15, 15]         215,040
     BatchNorm2d-155          [-1, 192, 15, 15]             384
     BasicConv2d-156          [-1, 192, 15, 15]               0
          Conv2d-157          [-1, 160, 15, 15]         122,880
     BatchNorm2d-158          [-1, 160, 15, 15]             320
     BasicConv2d-159          [-1, 160, 15, 15]               0
          Conv2d-160          [-1, 160, 15, 15]         179,200
     BatchNorm2d-161          [-1, 160, 15, 15]             320
     BasicConv2d-162          [-1, 160, 15, 15]               0
          Conv2d-163          [-1, 160, 15, 15]         179,200
     BatchNorm2d-164          [-1, 160, 15, 15]             320
     BasicConv2d-165          [-1, 160, 15, 15]               0
          Conv2d-166          [-1, 160, 15, 15]         179,200
     BatchNorm2d-167          [-1, 160, 15, 15]             320
     BasicConv2d-168          [-1, 160, 15, 15]               0
          Conv2d-169          [-1, 192, 15, 15]         215,040
     BatchNorm2d-170          [-1, 192, 15, 15]             384
     BasicConv2d-171          [-1, 192, 15, 15]               0
          Conv2d-172          [-1, 192, 15, 15]         147,456
     BatchNorm2d-173          [-1, 192, 15, 15]             384
     BasicConv2d-174          [-1, 192, 15, 15]               0
      InceptionC-175          [-1, 768, 15, 15]               0
          Conv2d-176          [-1, 192, 15, 15]         147,456
     BatchNorm2d-177          [-1, 192, 15, 15]             384
     BasicConv2d-178          [-1, 192, 15, 15]               0
          Conv2d-179          [-1, 192, 15, 15]         147,456
     BatchNorm2d-180          [-1, 192, 15, 15]             384
     BasicConv2d-181          [-1, 192, 15, 15]               0
          Conv2d-182          [-1, 192, 15, 15]         258,048
     BatchNorm2d-183          [-1, 192, 15, 15]             384
     BasicConv2d-184          [-1, 192, 15, 15]               0
          Conv2d-185          [-1, 192, 15, 15]         258,048
     BatchNorm2d-186          [-1, 192, 15, 15]             384
     BasicConv2d-187          [-1, 192, 15, 15]               0
          Conv2d-188          [-1, 192, 15, 15]         147,456
     BatchNorm2d-189          [-1, 192, 15, 15]             384
     BasicConv2d-190          [-1, 192, 15, 15]               0
          Conv2d-191          [-1, 192, 15, 15]         258,048
     BatchNorm2d-192          [-1, 192, 15, 15]             384
     BasicConv2d-193          [-1, 192, 15, 15]               0
          Conv2d-194          [-1, 192, 15, 15]         258,048
     BatchNorm2d-195          [-1, 192, 15, 15]             384
     BasicConv2d-196          [-1, 192, 15, 15]               0
          Conv2d-197          [-1, 192, 15, 15]         258,048
     BatchNorm2d-198          [-1, 192, 15, 15]             384
     BasicConv2d-199          [-1, 192, 15, 15]               0
          Conv2d-200          [-1, 192, 15, 15]         258,048
     BatchNorm2d-201          [-1, 192, 15, 15]             384
     BasicConv2d-202          [-1, 192, 15, 15]               0
          Conv2d-203          [-1, 192, 15, 15]         147,456
     BatchNorm2d-204          [-1, 192, 15, 15]             384
     BasicConv2d-205          [-1, 192, 15, 15]               0
      InceptionC-206          [-1, 768, 15, 15]               0
          Conv2d-207          [-1, 192, 15, 15]         147,456
     BatchNorm2d-208          [-1, 192, 15, 15]             384
     BasicConv2d-209          [-1, 192, 15, 15]               0
          Conv2d-210            [-1, 320, 7, 7]         552,960
     BatchNorm2d-211            [-1, 320, 7, 7]             640
     BasicConv2d-212            [-1, 320, 7, 7]               0
          Conv2d-213          [-1, 192, 15, 15]         147,456
     BatchNorm2d-214          [-1, 192, 15, 15]             384
     BasicConv2d-215          [-1, 192, 15, 15]               0
          Conv2d-216          [-1, 192, 15, 15]         258,048
     BatchNorm2d-217          [-1, 192, 15, 15]             384
     BasicConv2d-218          [-1, 192, 15, 15]               0
          Conv2d-219          [-1, 192, 15, 15]         258,048
     BatchNorm2d-220          [-1, 192, 15, 15]             384
     BasicConv2d-221          [-1, 192, 15, 15]               0
          Conv2d-222            [-1, 192, 7, 7]         331,776
     BatchNorm2d-223            [-1, 192, 7, 7]             384
     BasicConv2d-224            [-1, 192, 7, 7]               0
      InceptionD-225           [-1, 1280, 7, 7]               0
          Conv2d-226            [-1, 320, 7, 7]         409,600
     BatchNorm2d-227            [-1, 320, 7, 7]             640
     BasicConv2d-228            [-1, 320, 7, 7]               0
          Conv2d-229            [-1, 384, 7, 7]         491,520
     BatchNorm2d-230            [-1, 384, 7, 7]             768
     BasicConv2d-231            [-1, 384, 7, 7]               0
          Conv2d-232            [-1, 384, 7, 7]         442,368
     BatchNorm2d-233            [-1, 384, 7, 7]             768
     BasicConv2d-234            [-1, 384, 7, 7]               0
          Conv2d-235            [-1, 384, 7, 7]         442,368
     BatchNorm2d-236            [-1, 384, 7, 7]             768
     BasicConv2d-237            [-1, 384, 7, 7]               0
          Conv2d-238            [-1, 448, 7, 7]         573,440
     BatchNorm2d-239            [-1, 448, 7, 7]             896
     BasicConv2d-240            [-1, 448, 7, 7]               0
          Conv2d-241            [-1, 384, 7, 7]       1,548,288
     BatchNorm2d-242            [-1, 384, 7, 7]             768
     BasicConv2d-243            [-1, 384, 7, 7]               0
          Conv2d-244            [-1, 384, 7, 7]         442,368
     BatchNorm2d-245            [-1, 384, 7, 7]             768
     BasicConv2d-246            [-1, 384, 7, 7]               0
          Conv2d-247            [-1, 384, 7, 7]         442,368
     BatchNorm2d-248            [-1, 384, 7, 7]             768
     BasicConv2d-249            [-1, 384, 7, 7]               0
          Conv2d-250            [-1, 192, 7, 7]         245,760
     BatchNorm2d-251            [-1, 192, 7, 7]             384
     BasicConv2d-252            [-1, 192, 7, 7]               0
      InceptionE-253           [-1, 2048, 7, 7]               0
          Conv2d-254            [-1, 320, 7, 7]         655,360
     BatchNorm2d-255            [-1, 320, 7, 7]             640
     BasicConv2d-256            [-1, 320, 7, 7]               0
          Conv2d-257            [-1, 384, 7, 7]         786,432
     BatchNorm2d-258            [-1, 384, 7, 7]             768
     BasicConv2d-259            [-1, 384, 7, 7]               0
          Conv2d-260            [-1, 384, 7, 7]         442,368
     BatchNorm2d-261            [-1, 384, 7, 7]             768
     BasicConv2d-262            [-1, 384, 7, 7]               0
          Conv2d-263            [-1, 384, 7, 7]         442,368
     BatchNorm2d-264            [-1, 384, 7, 7]             768
     BasicConv2d-265            [-1, 384, 7, 7]               0
          Conv2d-266            [-1, 448, 7, 7]         917,504
     BatchNorm2d-267            [-1, 448, 7, 7]             896
     BasicConv2d-268            [-1, 448, 7, 7]               0
          Conv2d-269            [-1, 384, 7, 7]       1,548,288
     BatchNorm2d-270            [-1, 384, 7, 7]             768
     BasicConv2d-271            [-1, 384, 7, 7]               0
          Conv2d-272            [-1, 384, 7, 7]         442,368
     BatchNorm2d-273            [-1, 384, 7, 7]             768
     BasicConv2d-274            [-1, 384, 7, 7]               0
          Conv2d-275            [-1, 384, 7, 7]         442,368
     BatchNorm2d-276            [-1, 384, 7, 7]             768
     BasicConv2d-277            [-1, 384, 7, 7]               0
          Conv2d-278            [-1, 192, 7, 7]         393,216
     BatchNorm2d-279            [-1, 192, 7, 7]             384
     BasicConv2d-280            [-1, 192, 7, 7]               0
      InceptionE-281           [-1, 2048, 7, 7]               0
          Linear-282                   [-1, 10]          20,490
================================================================
Total params: 21,638,954
Trainable params: 21,638,954
Non-trainable params: 0
----------------------------------------------------------------
Input size (MB): 0.01
Forward/backward pass size (MB): 107.39
Params size (MB): 82.55
Estimated Total Size (MB): 189.95
----------------------------------------------------------------
