----------------------------------------------------------------
        Layer (type)               Output Shape         Param #
================================================================
            Conv2d-1           [-1, 64, 32, 32]           1,792
       BatchNorm2d-2           [-1, 64, 32, 32]             128
              ReLU-3           [-1, 64, 32, 32]               0
            Conv2d-4           [-1, 64, 32, 32]          36,928
       BatchNorm2d-5           [-1, 64, 32, 32]             128
              ReLU-6           [-1, 64, 32, 32]               0
         MaxPool2d-7           [-1, 64, 16, 16]               0
            Conv2d-8          [-1, 128, 16, 16]          73,856
       BatchNorm2d-9          [-1, 128, 16, 16]             256
             ReLU-10          [-1, 128, 16, 16]               0
           Conv2d-11          [-1, 128, 16, 16]         147,584
      BatchNorm2d-12          [-1, 128, 16, 16]             256
             ReLU-13          [-1, 128, 16, 16]               0
        MaxPool2d-14            [-1, 128, 8, 8]               0
           Conv2d-15            [-1, 256, 8, 8]         295,168
      BatchNorm2d-16            [-1, 256, 8, 8]             512
             ReLU-17            [-1, 256, 8, 8]               0
           Conv2d-18            [-1, 256, 8, 8]         590,080
      BatchNorm2d-19            [-1, 256, 8, 8]             512
             ReLU-20            [-1, 256, 8, 8]               0
        MaxPool2d-21            [-1, 256, 4, 4]               0
           Conv2d-22            [-1, 512, 4, 4]       1,180,160
      BatchNorm2d-23            [-1, 512, 4, 4]           1,024
             ReLU-24            [-1, 512, 4, 4]               0
           Conv2d-25            [-1, 512, 4, 4]       2,359,808
      BatchNorm2d-26            [-1, 512, 4, 4]           1,024
             ReLU-27            [-1, 512, 4, 4]               0
        MaxPool2d-28            [-1, 512, 2, 2]               0
           Conv2d-29            [-1, 512, 2, 2]       2,359,808
      BatchNorm2d-30            [-1, 512, 2, 2]           1,024
             ReLU-31            [-1, 512, 2, 2]               0
           Conv2d-32            [-1, 512, 2, 2]       2,359,808
      BatchNorm2d-33            [-1, 512, 2, 2]           1,024
             ReLU-34            [-1, 512, 2, 2]               0
        MaxPool2d-35            [-1, 512, 1, 1]               0
AdaptiveAvgPool2d-36            [-1, 512, 1, 1]               0
           Linear-37                 [-1, 4096]       2,101,248
             ReLU-38                 [-1, 4096]               0
          Dropout-39                 [-1, 4096]               0
           Linear-40                 [-1, 4096]      16,781,312
             ReLU-41                 [-1, 4096]               0
          Dropout-42                 [-1, 4096]               0
           Linear-43                   [-1, 10]          40,970
================================================================
Total params: 28,334,410
Trainable params: 28,334,410
Non-trainable params: 0
----------------------------------------------------------------
Input size (MB): 0.01
Forward/backward pass size (MB): 6.15
Params size (MB): 108.09
Estimated Total Size (MB): 114.25
----------------------------------------------------------------
