----------------------------------------------------------------
        Layer (type)               Output Shape         Param #
================================================================
            Conv2d-1         [-1, 64, 224, 224]           1,792
       BatchNorm2d-2         [-1, 64, 224, 224]             128
              ReLU-3         [-1, 64, 224, 224]               0
            Conv2d-4         [-1, 64, 224, 224]          36,928
       BatchNorm2d-5         [-1, 64, 224, 224]             128
              ReLU-6         [-1, 64, 224, 224]               0
         MaxPool2d-7         [-1, 64, 112, 112]               0
            Conv2d-8        [-1, 128, 112, 112]          73,856
       BatchNorm2d-9        [-1, 128, 112, 112]             256
             ReLU-10        [-1, 128, 112, 112]               0
           Conv2d-11        [-1, 128, 112, 112]         147,584
      BatchNorm2d-12        [-1, 128, 112, 112]             256
             ReLU-13        [-1, 128, 112, 112]               0
        MaxPool2d-14          [-1, 128, 56, 56]               0
           Conv2d-15          [-1, 256, 56, 56]         295,168
      BatchNorm2d-16          [-1, 256, 56, 56]             512
             ReLU-17          [-1, 256, 56, 56]               0
           Conv2d-18          [-1, 256, 56, 56]         590,080
      BatchNorm2d-19          [-1, 256, 56, 56]             512
             ReLU-20          [-1, 256, 56, 56]               0
           Conv2d-21          [-1, 256, 56, 56]         590,080
      BatchNorm2d-22          [-1, 256, 56, 56]             512
             ReLU-23          [-1, 256, 56, 56]               0
        MaxPool2d-24          [-1, 256, 28, 28]               0
           Conv2d-25          [-1, 512, 28, 28]       1,180,160
      BatchNorm2d-26          [-1, 512, 28, 28]           1,024
             ReLU-27          [-1, 512, 28, 28]               0
           Conv2d-28          [-1, 512, 28, 28]       2,359,808
      BatchNorm2d-29          [-1, 512, 28, 28]           1,024
             ReLU-30          [-1, 512, 28, 28]               0
           Conv2d-31          [-1, 512, 28, 28]       2,359,808
      BatchNorm2d-32          [-1, 512, 28, 28]           1,024
             ReLU-33          [-1, 512, 28, 28]               0
        MaxPool2d-34          [-1, 512, 14, 14]               0
           Conv2d-35          [-1, 512, 14, 14]       2,359,808
      BatchNorm2d-36          [-1, 512, 14, 14]           1,024
             ReLU-37          [-1, 512, 14, 14]               0
           Conv2d-38          [-1, 512, 14, 14]       2,359,808
      BatchNorm2d-39          [-1, 512, 14, 14]           1,024
             ReLU-40          [-1, 512, 14, 14]               0
           Conv2d-41          [-1, 512, 14, 14]       2,359,808
      BatchNorm2d-42          [-1, 512, 14, 14]           1,024
             ReLU-43          [-1, 512, 14, 14]               0
        MaxPool2d-44            [-1, 512, 7, 7]               0
AdaptiveAvgPool2d-45            [-1, 512, 1, 1]               0
           Linear-46                 [-1, 4096]       2,101,248
             ReLU-47                 [-1, 4096]               0
          Dropout-48                 [-1, 4096]               0
           Linear-49                 [-1, 4096]      16,781,312
             ReLU-50                 [-1, 4096]               0
          Dropout-51                 [-1, 4096]               0
           Linear-52                   [-1, 10]          40,970
================================================================
Total params: 33,646,666
Trainable params: 33,646,666
Non-trainable params: 0
----------------------------------------------------------------
Input size (MB): 0.57
Forward/backward pass size (MB): 321.95
Params size (MB): 128.35
Estimated Total Size (MB): 450.87
----------------------------------------------------------------
