----------------------------------------------------------------
        Layer (type)               Output Shape         Param #
================================================================
            Conv2d-1         [-1, 64, 224, 224]           1,792
       BatchNorm2d-2         [-1, 64, 224, 224]             128
              ReLU-3         [-1, 64, 224, 224]               0
         MaxPool2d-4         [-1, 64, 112, 112]               0
            Conv2d-5        [-1, 128, 112, 112]          73,856
       BatchNorm2d-6        [-1, 128, 112, 112]             256
              ReLU-7        [-1, 128, 112, 112]               0
         MaxPool2d-8          [-1, 128, 56, 56]               0
            Conv2d-9          [-1, 256, 56, 56]         295,168
      BatchNorm2d-10          [-1, 256, 56, 56]             512
             ReLU-11          [-1, 256, 56, 56]               0
           Conv2d-12          [-1, 256, 56, 56]         590,080
      BatchNorm2d-13          [-1, 256, 56, 56]             512
             ReLU-14          [-1, 256, 56, 56]               0
        MaxPool2d-15          [-1, 256, 28, 28]               0
           Conv2d-16          [-1, 512, 28, 28]       1,180,160
      BatchNorm2d-17          [-1, 512, 28, 28]           1,024
             ReLU-18          [-1, 512, 28, 28]               0
           Conv2d-19          [-1, 512, 28, 28]       2,359,808
      BatchNorm2d-20          [-1, 512, 28, 28]           1,024
             ReLU-21          [-1, 512, 28, 28]               0
        MaxPool2d-22          [-1, 512, 14, 14]               0
           Conv2d-23          [-1, 512, 14, 14]       2,359,808
      BatchNorm2d-24          [-1, 512, 14, 14]           1,024
             ReLU-25          [-1, 512, 14, 14]               0
           Conv2d-26          [-1, 512, 14, 14]       2,359,808
      BatchNorm2d-27          [-1, 512, 14, 14]           1,024
             ReLU-28          [-1, 512, 14, 14]               0
        MaxPool2d-29            [-1, 512, 7, 7]               0
AdaptiveAvgPool2d-30            [-1, 512, 1, 1]               0
           Linear-31                 [-1, 4096]       2,101,248
             ReLU-32                 [-1, 4096]               0
          Dropout-33                 [-1, 4096]               0
           Linear-34                 [-1, 4096]      16,781,312
             ReLU-35                 [-1, 4096]               0
          Dropout-36                 [-1, 4096]               0
           Linear-37                   [-1, 10]          40,970
================================================================
Total params: 28,149,514
Trainable params: 28,149,514
Non-trainable params: 0
----------------------------------------------------------------
Input size (MB): 0.57
Forward/backward pass size (MB): 181.84
Params size (MB): 107.38
Estimated Total Size (MB): 289.79
----------------------------------------------------------------
